…
tte.zip, skipping download
Extracted file found at AdaViT/imagenette_dataset/imagenette2-160, skipping extraction
Warning: num_classes is not used for Imagenette dataset.
Ignoring the argument and using default number of classes in this dataset (10).
Loading timm pretrained weights:  ['facebookresearch/deit:main', 'deit_tiny_patch16_224']
Downloading timm pretrained weights:  ['facebookresearch/deit:main', 'deit_tiny_patch16_224']
Loading weights for a different number of classes. Replacing head with random weights. You should fine-tune the model.
The Model is:  VisionTransformer(
  (conv_proj): Conv2d(3, 192, kernel_size=(16, 16), stride=(16, 16))
  (encoder): ViTEncoder(
    (dropout): Dropout(p=0.0, inplace=False)
    (layers): Sequential(
      (0): ViTBlock(
        (ln_1): LayerNorm((192,), eps=1e-05, elementwise_affine=True)
        (self_attention): SelfAttention(
          (self_attention): MultiheadAttention(
            (out_proj): NonDynamicallyQuantizableLinear(in_features=192, out_features=192, bias=True)
          )
        )
        (dropout): Dropout(p=0.0, inplace=False)
        (ln_2): LayerNorm((192,), eps=1e-05, elementwise_affine=True)
        (mlp): MLP(
          (fc1): Linear(in_features=192, out_features=768, bias=True)
          (fc2): Linear(in_features=768, out_features=192, bias=True)
        )
      )
      (1): ViTBlock(
        (ln_1): LayerNorm((192,), eps=1e-05, elementwise_affine=True)
        (self_attention): SelfAttention(
          (self_attention): MultiheadAttention(
            (out_proj): NonDynamicallyQuantizableLinear(in_features=192, out_features=192, bias=True)
          )
        )
        (dropout): Dropout(p=0.0, inplace=False)
        (ln_2): LayerNorm((192,), eps=1e-05, elementwise_affine=True)
        (mlp): MLP(
          (fc1): Linear(in_features=192, out_features=768, bias=True)
          (fc2): Linear(in_features=768, out_features=192, bias=True)
        )
      )
      (2): ViTBlock(
        (ln_1): LayerNorm((192,), eps=1e-05, elementwise_affine=True)
        (self_attention): SelfAttention(
          (self_attention): MultiheadAttention(
            (out_proj): NonDynamicallyQuantizableLinear(in_features=192, out_features=192, bias=True)
          )
        )
        (dropout): Dropout(p=0.0, inplace=False)
        (ln_2): LayerNorm((192,), eps=1e-05, elementwise_affine=True)
        (mlp): MLP(
          (fc1): Linear(in_features=192, out_features=768, bias=True)
          (fc2): Linear(in_features=768, out_features=192, bias=True)
        )
      )
      (3): ViTBlock(
        (ln_1): LayerNorm((192,), eps=1e-05, elementwise_affine=True)
        (self_attention): SelfAttention(
          (self_attention): MultiheadAttention(
            (out_proj): NonDynamicallyQuantizableLinear(in_features=192, out_features=192, bias=True)
          )
        )
        (dropout): Dropout(p=0.0, inplace=False)
        (ln_2): LayerNorm((192,), eps=1e-05, elementwise_affine=True)
        (mlp): MLP(
          (fc1): Linear(in_features=192, out_features=768, bias=True)
          (fc2): Linear(in_features=768, out_features=192, bias=True)
        )
      )
      (4): ViTBlock(
        (ln_1): LayerNorm((192,), eps=1e-05, elementwise_affine=True)
        (self_attention): SelfAttention(
          (self_attention): MultiheadAttention(
            (out_proj): NonDynamicallyQuantizableLinear(in_features=192, out_features=192, bias=True)
          )
        )
        (dropout): Dropout(p=0.0, inplace=False)
        (ln_2): LayerNorm((192,), eps=1e-05, elementwise_affine=True)
        (mlp): MLP(
          (fc1): Linear(in_features=192, out_features=768, bias=True)
          (fc2): Linear(in_features=768, out_features=192, bias=True)
        )
      )
      (5): ViTBlock(
        (ln_1): LayerNorm((192,), eps=1e-05, elementwise_affine=True)
        (self_attention): SelfAttention(
          (self_attention): MultiheadAttention(
            (out_proj): NonDynamicallyQuantizableLinear(in_features=192, out_features=192, bias=True)
          )
        )
        (dropout): Dropout(p=0.0, inplace=False)
        (ln_2): LayerNorm((192,), eps=1e-05, elementwise_affine=True)
        (mlp): MLP(
          (fc1): Linear(in_features=192, out_features=768, bias=True)
          (fc2): Linear(in_features=768, out_features=192, bias=True)
        )
      )
      (6): ViTBlock(
        (ln_1): LayerNorm((192,), eps=1e-05, elementwise_affine=True)
        (self_attention): SelfAttention(
          (self_attention): MultiheadAttention(
            (out_proj): NonDynamicallyQuantizableLinear(in_features=192, out_features=192, bias=True)
          )
        )
        (dropout): Dropout(p=0.0, inplace=False)
        (ln_2): LayerNorm((192,), eps=1e-05, elementwise_affine=True)
        (mlp): MLP(
          (fc1): Linear(in_features=192, out_features=768, bias=True)
          (fc2): Linear(in_features=768, out_features=192, bias=True)
        )
      )
      (7): ViTBlock(
        (ln_1): LayerNorm((192,), eps=1e-05, elementwise_affine=True)
        (self_attention): SelfAttention(
          (self_attention): MultiheadAttention(
            (out_proj): NonDynamicallyQuantizableLinear(in_features=192, out_features=192, bias=True)
          )
        )
        (dropout): Dropout(p=0.0, inplace=False)
        (ln_2): LayerNorm((192,), eps=1e-05, elementwise_affine=True)
        (mlp): MLP(
          (fc1): Linear(in_features=192, out_features=768, bias=True)
          (fc2): Linear(in_features=768, out_features=192, bias=True)
        )
      )
      (8): ViTBlock(
        (ln_1): LayerNorm((192,), eps=1e-05, elementwise_affine=True)
        (self_attention): SelfAttention(
          (self_attention): MultiheadAttention(
            (out_proj): NonDynamicallyQuantizableLinear(in_features=192, out_features=192, bias=True)
          )
        )
        (dropout): Dropout(p=0.0, inplace=False)
        (ln_2): LayerNorm((192,), eps=1e-05, elementwise_affine=True)
        (mlp): MLP(
          (fc1): Linear(in_features=192, out_features=768, bias=True)
          (fc2): Linear(in_features=768, out_features=192, bias=True)
        )
      )
      (9): ViTBlock(
        (ln_1): LayerNorm((192,), eps=1e-05, elementwise_affine=True)
        (self_attention): SelfAttention(
          (self_attention): MultiheadAttention(
            (out_proj): NonDynamicallyQuantizableLinear(in_features=192, out_features=192, bias=True)
          )
        )
        (dropout): Dropout(p=0.0, inplace=False)
        (ln_2): LayerNorm((192,), eps=1e-05, elementwise_affine=True)
        (mlp): MLP(
          (fc1): Linear(in_features=192, out_features=768, bias=True)
          (fc2): Linear(in_features=768, out_features=192, bias=True)
        )
      )
      (10): ViTBlock(
        (ln_1): LayerNorm((192,), eps=1e-05, elementwise_affine=True)
        (self_attention): SelfAttention(
          (self_attention): MultiheadAttention(
            (out_proj): NonDynamicallyQuantizableLinear(in_features=192, out_features=192, bias=True)
          )
        )
        (dropout): Dropout(p=0.0, inplace=False)
        (ln_2): LayerNorm((192,), eps=1e-05, elementwise_affine=True)
        (mlp): MLP(
          (fc1): Linear(in_features=192, out_features=768, bias=True)
          (fc2): Linear(in_features=768, out_features=192, bias=True)
        )
      )
      (11): ViTBlock(
        (ln_1): LayerNorm((192,), eps=1e-05, elementwise_affine=True)
        (self_attention): SelfAttention(
          (self_attention): MultiheadAttention(
            (out_proj): NonDynamicallyQuantizableLinear(in_features=192, out_features=192, bias=True)
          )
        )
        (dropout): Dropout(p=0.0, inplace=False)
        (ln_2): LayerNorm((192,), eps=1e-05, elementwise_affine=True)
        (mlp): MLP(
          (fc1): Linear(in_features=192, out_features=768, bias=True)
          (fc2): Linear(in_features=768, out_features=192, bias=True)
        )
      )
    )
    (ln): LayerNorm((192,), eps=1e-05, elementwise_affine=True)
  )
  (head): Linear(in_features=192, out_features=10, bias=True)
)
Using cache found in /home/studio-lab-user/.cache/torch/hub/facebookresearch_deit_main
Error executing job with overrides: []
Traceback (most recent call last):
  File "/home/studio-lab-user/sagemaker-studiolab-notebooks/AdaViT/train/train.py", line 62, in train
    model.to(device)
  File "/home/studio-lab-user/.conda/envs/studiolab/lib/python3.9/site-packages/torch/nn/modules/module.py", line 1152, in to
…
